solution_methods/DANIEL/save/SD2/10x5+mix.pth (torch, 137906 bytes, 50 tensors)

feature_exact.op_attention_blocks.0.attention_0.W f4 [10, 32]
-0.34438777 -0.29642117 0.52146226 0.42325488 -0.42632848 0.18683435 0.40253797 0.16084018
0.4950719 -0.2936369 0.2742034 0.42889643 0.3631561 0.13314672 -0.31591222 0.14050663
0.036115937 -0.28921694 -0.13169952 0.51056355 -0.20122981 -0.15288696 -0.13813162 0.3265905
-0.22746806 0.36275035 0.09690078 -0.20410424 -0.030002767 -0.15029687 -0.2189928 0.3623978
0.19291697 0.3147666 0.41027647 0.52462405 0.3772602 -0.108907565 0.43011776 -0.44081062
0.43325993 0.19716896 0.43170294 0.16347782 -0.51003325 0.31294572 -0.37390003 0.35070473
-0.40222764 0.114484295 -0.42728662 -0.49193445 -0.2156905 -0.3660654 -0.42343456 0.04316858
-0.31584087 -0.42067266 -0.102735125 0.49248257 0.22812167 -0.30244246 0.43218154 -0.24221125
-0.4599277 0.44596693 0.20302564 0.10640054 0.16764258 -0.31753647 0.34407717 -0.17753012
0.47184083 -0.003944048 -0.17950808 0.09545159 -0.11720186 0.43960035 0.13449016 -0.5263882
0.5108527 0.0982851 -0.27191573 0.4538234 -0.15486649 0.06119597 0.44143686 -0.5030916
-0.2875382 0.044024583 -0.38635376 0.2923723 -0.5344854 0.1068103 -0.0411986 0.14519978
-0.36742827 -0.0026574205 0.21019928 0.1068482 -0.063245736 0.005420633 -0.02594454 0.19483167
0.4531509 0.4055839 -0.42588875 0.01874961 0.44790366 0.44691 -0.24831559 0.50020784
-0.37736243 -0.030453777 -0.14632002 0.29220623 -0.41336715 -0.36116493 0.33295697 -0.40080547
0.5122693 -0.46928796 -0.14594778 -0.07661088 0.075780146 0.09953021 0.37171146 -0.06403533
-0.40612158 -0.14443965 0.086201 -0.511144 0.5255894 0.39152637 -0.27840057 -0.032178976
0.40677917 -0.14882211 0.2913306 0.46802497 -0.495069 -0.2602955 0.31409195 0.03391935
-0.29799655 0.20656984 -0.21044552 -0.18099868 0.13886908 -0.06252319 0.032394953 0.29404446
-0.023208195 0.25365084 -0.44137976 0.21022092 0.48109153 -0.3821285 -0.28515896 -0.37304887
-0.06496659 0.085646264 -0.33904198 0.30511326 0.21383049 -0.078114994 0.1914493 -0.2686791
-0.081469394 0.027341774 -0.04428271 0.3800903 -0.3251804 0.09748501 -0.25404453 -0.4068132
-0.33721405 0.4186613 -0.4691883 -0.25253093 0.5288708 0.17103367 0.046985596 0.18896808
-0.5216625 0.11355172 -0.46956068 -0.2933533 -0.3069667 -0.38707775 -0.17050527 0.14633067
0.18768612 -0.19690308 0.03078362 0.33372185 -0.25689813 -0.10076102 0.18325663 -0.21700895
-0.37101912 0.13026811 0.18270135 0.3825251 -0.2572856 0.15139724 0.073352106 -0.43180376
-0.53173447 0.37778234 0.43655926 -0.38292727 -0.20204467 0.21838966 -0.43347073 -0.10834608
0.1095616 -0.25144508 -0.49411643 0.21652506 -0.0536381 0.42091432 0.3435485 -0.3212124
0.3820353 -0.5199229 0.36437628 -0.3428609 -0.40781343 -0.48528117 0.27930337 0.12080054
0.19730309 0.21581636 0.09688671 -0.44338533 0.37672785 -0.4686934 -0.07043856 0.48692697
0.20800225 -0.46598297 -0.27743673 -0.22638032 -0.2716686 0.2832045 -0.03038163 -0.17580916
0.4154846 -0.4643441 0.118239604 -0.3152435 -0.05788478 -0.5088194 0.31797987 0.0935241
00000000: 9853 b0be 84c4 97be 8d7e 053f ddb4 d83e
00000010: ba47 dabe 8151 3f3e 7519 ce3e 4ab3 243e
00000020: 107a fd3e 9357 96be 6364 8c3e 5098 db3e
00000030: 99ef b93e 9d57 083e 3fbf a1be f8e0 0f3e
00000040: 4eee 133d 3e14 94be 3ddc 06be 4bb4 023f
00000050: 300f 4ebe 668e 1cbe 6072 0dbe df36 a73e
00000060: 63ed 68be 6aba b93e eb73 c63d b400 51be
00000070: 5dc8 f5bc 6ce7 19be a63f 60be 348c b93e
00000080: 078c 453e 1629 a13e c20f d23e c34d 063f
00000090: 4028 c13e ee0a dfbd 6538 dc3e eeb1 e1be
000000a0: 3fd4 dd3e a9e6 493e 2b08 dd3e bb66 273e
000000b0: 8a91 02bf 6c3a a03e d36f bfbe 928f b33e
000000c0: c8f0 cdbe be76 ea3d 50c5 dabe d5de fbbe
000000d0: f8dd 5cbe ed6c bbbe 6acc d8be 89d1 303d
000000e0: e5b5 a1be 6862 d7be cb66 d2bd ad26 fc3e
000000f0: ba98 693e bdd9 9abe e646 dd3e 3a06 78be
00000100: a57b ebbe c755 e43e f4e5 4f3e 87e8 d93d
00000110: 7faa 2b3e 2494 a2be e22a b03e 75ca 35be
00000120: 1f95 f13e 133d 81bb f7d0 37be 207c c33d
00000130: 8707 f0bd 4c13 e13e cab7 093e 61c1 06bf
00000140: 3ec7 023f b349 c93d 8a38 8bbe 8a5b e83e
00000150: 5295 1ebe a0a8 7a3d 0304 e23e 9cca 00bf
00000160: 3538 93be 1f53 343d 29d0 c5be d2b1 953e
00000170: 09d4 08bf 5cbf da3d ddbf 28bd 40af 143e
00000180: 8f1f bcbe 1e28 2ebb 7b3e 573e 3bd3 da3d
00000190: fb86 81bd 919f b13b a589 d4bc f481 473e
000001a0: 6503 e83e b1a8 cf3e 170e dabe c898 993c
000001b0: a153 e53e 63d1 e43e 7146 7ebe 9f0d 003f
000001c0: a635 c1be 337a f9bc ead4 15be 0e9c 953e
000001d0: dca4 d3be 9cea b8be 5679 aa3e 6036 cdbe
000001e0: 1524 033f 8346 f0be 5673 15be 2ae6 9cbd
000001f0: 9f32 9b3d 7fd6 cb3d f750 be3e f524 83bd
00000200: 2bef cfbe fde7 13be 268a b03d 55da 02bf
00000210: 078d 063f 2576 c83e 858a 8ebe 1ace 03bd
00000220: 5c45 d03e d364 18be 4929 953e f8a0 ef3e
00000230: af79 fdbe 7445 85be a9d0 a03e 04ef 0a3d
00000240: 0193 98be 0b87 533e 087f 57be b857 39be
00000250: b233 0e3e 290c 80bd 92b0 043d ff8c 963e
00000260: 1d1f bebc 86de 813e 87fc e1be 2744 573e
00000270: a151 f63e 59a6 c3be 5b00 92be 4300 bfbe
00000280: 340d 85bd 4f67 af3d e996 adbe ce37 9c3e
00000290: 61f6 5a3e c1fa 9fbd 490b 443e 4f90 89be
000002a0: 6dd9 a6bd dbfb df3c c961 35bd 329b c23e
000002b0: 0c7e a6be 39a6 c73d 2012 82be d249 d0be
000002c0: 52a7 acbe c65a d63e 7339 f0be bc4b 81be
000002d0: 1464 073f 7323 2f3e f873 403d d980 413e
000002e0: ac8b 05bf ce8d e83d 426a f0be 6732 96be
000002f0: bd2a 9dbe 0e2f c6be ef98 2ebe b5d7 153e
00000300: ca30 403e f6a0 49be ee2d fc3c 97dd aa3e
00000310: 2788 83be cb5b cebd a0a7 3b3e 9837 5ebe
00000320: 38f6 bdbe 0165 053e 1016 3b3e 54da c33e
00000330: f0ba 83be e107 1b3e a139 963d 6215 ddbe
00000340: c01f 08bf b06c c13e b284 df3e 0b0f c4be
00000350: cce4 4ebe 8aa1 5f3e e0ef ddbe 8de4 ddbd
00000360: d561 e03d 69bd 80be d4fc fcbe bfb8 5d3e
00000370: a0b3 5bbd 1582 d73e 97e5 af3e f475 a4be
00000380: 219a c33e ab19 05bf 878f ba3e 778b afbe
00000390: eccc d0be c676 f8be da00 8f3e 4666 f73d
000003a0: d209 4a3e f7fe 5c3e 8a6c c63d 6703 e3be
000003b0: 79e2 c03e 95f8 efbe 1742 90bd 7e4e f93e
000003c0: 8bfe 543e 5295 eebe 300c 8ebe 3ed0 67be
000003d0: 2618 8bbe 2e00 913e e5e2 f8bc 5107 34be
000003e0: 66ba d43e 83be edbe 9b27 f23d 9967 a1be
000003f0: 9718 6dbd fd41 02bf 42ce a23e 9089 bf3d

feature_exact.op_attention_blocks.0.attention_0.a f4 [64, 1]
0.14670329 0.3694905 0.3945293 -0.22675964 -0.21345368 -0.38815933 -0.13937464 0.33089036
0.3276619 0.2842079 -0.039326716 0.02420211 -0.029412564 0.057746425 -0.07954834 0.37773505
-0.024807297 -0.3416446 0.20214157 -0.26823217 0.19502632 0.118601814 0.36492747 -0.29358798
-0.2616964 0.21489514 -0.31454557 -0.4054499 0.25699413 -0.18838911 0.35729262 0.41342536
0.36280426 0.09957733 0.1014138 0.39002097 -0.20356062 0.013931291 0.115409434 -0.15388137
0.31096968 0.29801893 0.12727174 -0.15333067 0.40726283 0.1995388 -0.15831678 -0.12944211
0.40246704 0.0035042814 0.32546633 0.3793498 0.14625967 0.39168403 0.17904104 -0.0548403
-0.40994036 -0.07453256 0.32283494 -0.069784835 0.42922255 -0.33894855 -0.08736409 -0.20566948
00000000: 6339 163e dc2d bd3e bfff c93e ae33 68be
00000010: 9a93 5abe d2bc c6be 3ab8 0ebe 766a a93e
00000020: 4dc3 a73e b383 913e 0d15 21bd 8143 c63c
00000030: 9ef2 f0bc 8487 6c3d 3dea a2bd 7d66 c13e
00000040: ac38 cbbc 0aec aebe 33fe 4e3e ba55 89be
00000050: fbb4 473e 82e5 f23d c6d7 ba3e 2a51 96be
00000060: 12fd 85be 790d 5c3e 1e0c a1be 2197 cfbe
00000070: bc94 833e 13e9 40be 0fef b63e 7dac d33e
00000080: 7bc1 b93e 33ef cb3d 0ab2 cf3d d4b0 c73e
00000090: 3272 50be 1240 643c c85b ec3d 1493 1dbe
000000a0: 6b37 9f3e f095 983e 8653 023e b702 1dbe
000000b0: c184 d03e e653 4c3e cb1d 22be 798c 04be
000000c0: 2910 ce3e 16a8 653b 86a3 a63e 233a c23e
000000d0: 18c5 153e cf8a c83e 8956 373e 39a0 60bd
000000e0: b4e3 d1be 87a4 98bd 9f4a a53e 5aeb 8ebd
000000f0: 0fc3 db3e aa8a adbe f2eb b2bd 059b 52be

feature_exact.op_attention_blocks.0.attention_1.W f4 [10, 32]
-0.016512915 0.38368788 -0.23462135 -0.029109135 -0.09371687 0.36048397 -0.102692954 0.4856398
0.38232267 0.15373051 0.21371663 -0.22268882 -0.21935005 0.4107659 0.5020665 0.42398524
-0.2957087 -0.07735684 0.32571232 -0.3146408 0.11230843 0.12679963 0.2091621 0.15170233
0.50924927 -0.4869892 0.26940614 -0.1662388 0.2558713 -0.41806582 0.1723335 -0.42123765
0.04251393 0.5009819 -0.33774576 0.05091288 -0.36586183 0.26123554 -0.05129543 0.5105762
-0.2682844 -0.05122727 -0.3475356 -0.16451316 -0.5030029 -0.09001528 0.22040713 -0.45977455
0.385019 0.286633 0.36236247 0.53100073 0.09223623 -0.34919453 -0.22770274 0.29523495
-0.15287817 -0.29452813 -0.18099676 -0.19554734 -0.036870014 0.37322935 -0.05210939 -0.39682493
-0.18644491 0.2891253 -0.14999866 0.53837997 0.22179608 -0.04052503 -0.16472332 0.21457717
0.38862917 0.000115342256 0.26209724 0.23023254 -0.48703167 -0.029878967 -0.047584757 -0.52074206
-0.14852831 0.28487635 -0.29062566 0.20356022 -0.07006524 0.5294546 0.5215229 0.2401824
-0.46978837 -0.5338532 0.26501447 0.059111513 0.17589943 0.2593331 0.26821637 0.055531807
0.042130847 -0.17112221 0.161452 0.04987916 0.18738626 0.26209316 -0.37512097 -0.025601013
-0.02574686 0.36485857 -0.36524895 0.23134013 0.021386415 0.50455916 0.06492852 -0.17542079
0.40837497 0.018197946 -0.3470633 -0.13550201 0.08615599 -0.458889 -0.40216073 0.18429947
-0.38836974 -0.08335234 -0.41578978 0.36768377 -0.37277856 0.101368085 0.08325556 -0.020475404
-0.4011344 -0.119281694 0.2868594 0.4781306 0.3238011 0.49826112 0.51181173 -0.30356246
-0.45857346 0.26516312 -0.11598346 -0.32298878 0.2493755 0.022114309 0.028017728 0.50636375
-0.13183628 -0.12011015 -0.43791738 -0.20897755 -0.40846443 -0.32299888 0.14056495 -0.037891205
0.48120117 0.23352908 0.24429898 -0.19553234 -0.4036873 0.332685 0.24092898 0.4399913
0.06348259 0.4642523 0.1782926 0.0020450754 0.121657476 -0.14501356 0.13923244 -0.3442096
-0.4412174 -0.22286774 0.29633513 0.20625891 0.15324228 0.37113288 0.51435363 -0.14536636
-0.014878859 0.13225795 0.3791414 -0.16646457 -0.18146971 -0.12472877 0.224173 -0.062490027
-0.05037931 -0.13628641 0.25244236 0.47217324 -0.2196626 0.47233263 0.4465716 -0.15275334
-0.2630706 0.31295455 -0.23633641 -0.52877873 -0.44791642 0.3729418 -0.50080234 -0.06127485
0.38629743 -0.22267886 0.11150454 -0.34941703 0.28398335 0.22232492 -0.5044488 -0.29881844
-0.30587554 0.48050258 -0.20580523 -0.2732037 0.38943353 -0.13710383 0.18566783 0.5091814
0.3960087 -0.49888724 -0.058206018 0.02268706 0.27440453 0.48275417 -0.3132804 -0.025683988
-0.092080966 0.34064075 0.40177324 -0.21533966 0.017365716 -0.16235116 0.30462918 -0.25455678
-0.33796284 0.019557595 -0.1416347 -0.36839303 0.45781288 0.30054975 0.004709628 0.47934344
0.27223173 0.124111705 0.24944633 0.37075078 -0.2459635 -0.39347532 0.42740598 -0.4308315
0.35234392 0.4322568 0.43462527 0.3894504 -0.4592276 0.040618557 -0.3810503 0.10261684
00000000: 1846 87bc bd72 c43e 9440 70be 4876 eebc
00000010: a1ee bfbd 5b91 b83e af50 d2bd c8a5 f83e
00000020: ccbf c33e 886b 1d3e 88d8 5a3e 8a08 64be
00000030: 4d9d 60be e84f d23e 6e87 003f 9814 d93e
00000040: 2167 97be 436d 9ebd c4c3 a63e 9918 a1be
00000050: f601 e63d c3d7 013e 972e 563e db57 1b3e
00000060: 295e 023f a656 f9be 9aef 893e 813a 2abe
00000070: 9001 833e b90c d6be 3178 303e 76ac d7be
00000080: 1623 2e3d 5a40 003f 03ed acbe 068a 503d
00000090: 3e52 bbbe aac0 853e 281b 52bd 1fb5 023f
000000a0: 935c 89be b0d3 51bd 30f0 b1be 2376 28be
000000b0: ccc4 00bf ee59 b8bd 68b2 613e 9267 ebbe
000000c0: 3621 c53e 90c1 923e 9387 b93e aaef 073f
000000d0: 59e6 bc3d a0c9 b2be e82a 69be 0929 973e
000000e0: 188c 1cbe 64cc 96be 3757 39be 903d 48be
000000f0: 0305 17bd eb17 bf3e a870 55bd a32c cbbe
00000100: 6aeb 3ebe 3b08 943e 4099 19be 45d3 093f
00000110: 831e 633e 93fd 25bd 3bad 28be 1eba 5b3e
00000120: 67fa c63e e7e3 f138 9c31 863e 14c2 6b3e
00000130: 375c f9be bcc4 f4bc 3ce8 42bd 5a4f 05bf
00000140: ce17 18be 50db 913e e3cc 94be 1772 503e
00000150: 5d7e 8fbd 568a 073f 8682 053f 60f2 753e
00000160: 1a88 f0be 9aaa 08bf faaf 873e ea1e 723d
00000170: fb1e 343e 4fc7 843e a853 893e 5275 633d
00000180: 6591 2c3d a93a 2fbe ac53 253e 174e 4c3d
00000190: 2fe2 3f3e 1331 863e db0f c0be 37b9 d1bc
000001a0: 14eb d2bc bece ba3e e901 bbbe 6de4 6c3e
000001b0: 9032 af3c ca2a 013f 3ef9 843d 82a1 33be
000001c0: 8616 d13e dc13 953c 48b2 b1be 0ac1 0abe
000001d0: 8d72 b03d 80f3 eabe 03e8 cdbe 00b9 3c3e
000001e0: 66d8 c6be a2b4 aabd 66e2 d4be 0c41 bc3e
000001f0: d5dc bebe 129a cf3d e481 aa3d 09bc a7bc
00000200: 7d61 cdbe f649 f4bd 3cdf 923e 89cd f43e
00000210: 42c9 a53e 151c ff3e 1806 033f 8a6c 9bbe
00000220: 24ca eabe 76c3 873e bc88 edbd c95e a5be
00000230: 4b5c 7f3e 1129 b53c 6f85 e53c 0ea1 013f
00000240: 1700 07be 4ffc f5bd b536 e0be 36fe 55be
00000250: 4022 d1be 1c60 a5be 42f0 0f3e cf33 1bbd
00000260: 0060 f63e 3f22 6f3e 8329 7a3e a139 48be
00000270: 1ab0 cebe b055 aa3e 16b6 763e 8a46 e13e
00000280: 2903 823d 7ab2 ed3e 5692 363e ac06 063b
00000290: 8e27 f93d 6f7e 14be f392 0e3e 3e3c b0be
000002a0: 3fe7 e1be 7137 64be 3db9 973e 8935 533e
000002b0: 8beb 1c3e 2105 be3e aeac 033f ebda 14be
000002c0: 75c6 73bc a16e 073e d21e c23e b075 2abe
000002d0: 32d3 39be cc71 ffbd 9b8d 653e 8bf5 7fbd
000002e0: 895a 4ebd aa8e 0bbe 2040 813e b1c0 f13e
000002f0: 3cef 60be 95d5 f13e 08a5 e43e 5f6b 1cbe
00000300: 31b1 86be 943b a03e 2c02 72be 0b5e 07bf
00000310: 4d55 e5be 3af2 be3e 9534 00bf 56fb 7abd
00000320: c7c8 c53e ed05 64be 7e5c e43d cae6 b2be
00000330: 4466 913e 25a9 633e 8e23 01bf bbfe 98be
00000340: b89b 9cbe 6f04 f63e 9bbe 52be 5be1 8bbe
00000350: d563 c73e f264 0cbe b51f 3e3e b659 023f
00000360: a7c1 ca3e 266e ffbe 6f69 6ebd 37da b93c
00000370: c07e 8c3e 8e2b f73e 4a66 a0be 3a67 d2bc
00000380: f294 bcbd 7768 ae3e 39b5 cd3e 0082 5cbe
00000390: 8c42 8e3c 623f 26be 5bf8 9b3e 4455 82be
000003a0: 7709 adbe 4037 a03c b008 11be 039e bcbe
000003b0: 7366 ea3e a8e1 993e 3953 9a3b 816c f53e
000003c0: f561 8b3e 472e fe3d dc6e 7f3e 0cd3 bd3e
000003d0: dbdd 7bbe 9975 c9be f5d4 da3e f295 dcbe
000003e0: 6c66 b43e c350 dd3e 3487 de3e 0b66 c73e
000003f0: e11f ebbe a55f 263d 0619 c3be c728 d23d

feature_exact.op_attention_blocks.0.attention_1.a f4 [64, 1]
0.19257765 0.34944925 -0.010371943 0.34187683 -0.3472803 0.11767525 0.24138503 -0.06601182
-0.22826308 -0.056552745 0.12992497 -0.36774287 0.3682857 -0.23236679 -0.34236285 0.10006644
0.18629949 0.19458425 0.0025393325 0.17207202 0.38832426 0.18206228 0.18792349 -0.09910591
-0.04077858 0.17099452 0.12743556 0.014034325 -0.07789617 0.23406354 -0.39417735 -0.08671898
0.060438547 -0.0026937586 -0.37166128 -0.009216912 0.39553124 -0.24517672 -0.23352167 0.35266984
0.08768367 0.12734711 0.1483978 -0.32103652 0.116063796 -0.27346298 -0.066204004 -0.3359503
0.3510004 -0.27912736 0.2870196 0.048888832 0.24429296 -0.28191906 0.30194142 -0.43033418
-0.062019613 -0.21076708 0.057750218 0.32077974 -0.4114538 0.40940753 0.1453613 -0.20043589
00000000: 1333 453e 03eb b23e 15ef 29bc 7b0a af3e
00000010: b9ce b1be b9ff f03d a32d 773e 3531 87bd
00000020: ccbd 69be daa3 67bd 0d0b 053e cb48 bcbe
00000030: f18f bc3e 8ff1 6dbe 2f4a afbe a2ef cc3d
00000040: 4bc5 3e3e 1841 473e ee6a 263b a633 303e
00000050: 70d2 c63e 896e 3a3e 046f 403e 0af8 cabd
00000060: 7107 27bd 3019 2f3e 787e 023e 3af0 653c
00000070: 0788 9fbd 5aae 6f3e 9dd1 c9be b899 b1bd
00000080: 698e 773d c589 30bb 634a bebe 8802 17bc
00000090: 1283 ca3e 9b0f 7bbe 4e20 6fbe 2491 b43e
000000a0: 7f93 b33d 4867 023e 98f5 173e e65e a4be
000000b0: dbb2 ed3d 5703 8cbe f795 87bd ad01 acbe
000000c0: 53b6 b33e c8e9 8ebe 3cf4 923e a83f 483d
000000d0: ef27 7a3e b257 90be 1198 9a3e c354 dcbe
000000e0: 4708 7ebd 53d3 57be 7e8b 6c3d 3e3d a43e
000000f0: 13aa d2be dd9d d13e 98d9 143e 113f 4dbe

feature_exact.op_attention_blocks.0.attention_2.W f4 [10, 32]
0.102285326 -0.4257434 -0.28582853 0.38766512 -0.05601066 0.24966908 -0.17354302 0.021202523
0.13667735 0.015142513 0.38101742 0.32249194 0.39661103 0.3845855 0.07904441 -0.27030283
-0.32842818 0.32680643 0.20136799 0.23259407 -0.22130437 0.37604478 -0.085197866 0.54168
-0.503076 -0.36909214 -0.04012528 -0.21167757 0.07769866 -0.16806531 0.379042 0.43480116
-0.4132401 -0.18072715 -0.12942792 0.35756144 -0.35613537 0.18967602 -0.055495054 -0.39285085
0.25630465 -0.4187569 -0.0039373725 0.00848349 -0.52250606 -0.3126977 0.39106354 0.36197862
0.43100622 -0.31876346 0.17513219 0.06572061 -0.47802025 0.2317375 -0.49379656 0.2601486
-0.49905118 -0.04044816 -0.15060474 0.28343946 0.42166153 -0.28527567 -0.4221739 -0.019035628
0.32108805 0.02978314 0.3255113 -0.18474513 -0.026161717 0.48218915 -0.40386972 0.2123516
0.3032292 0.05041227 -0.34507617 -0.2778985 0.18633312 -0.51925063 0.18715933 0.033083007
-0.36671823 0.46392784 -0.26373857 0.24727993 -0.15311189 -0.47410083 0.2706079 0.03392989
0.12614974 -0.24957605 0.010197062 -0.1490053 -0.2584474 0.30571157 0.12396316 0.49683937
-0.43018728 0.5247294 -0.4196961 -0.33283773 0.029423846 0.22693883 0.24740416 -0.1316659
0.5126702 0.5221761 -0.34710956 0.1165798 0.34508103 -0.2835559 -0.1860629 0.13401718
-0.113654085 -0.24952042 0.276709 0.37407133 -0.07295087 0.1588045 -0.10932544 -0.031720158
-0.041735146 0.008593653 -0.5008878 0.43287745 0.44353727 0.44530326 -0.5170174 0.46271276
-0.4459612 -0.099108905 -0.20975474 -0.46996439 0.19238156 -0.25523266 0.21608104 0.44630858
0.47169617 0.24020228 -0.11849699 0.25396058 0.13173382 0.5116929 -0.3093612 -0.32464296
-0.35105947 0.17109667 -0.52603173 0.41439196 -0.30034167 -0.34217724 0.034782685 0.48996156
0.15614767 0.351785 0.34609294 0.31930202 0.52600104 -0.16792868 -0.42537478 0.32683623
-0.40093118 -0.17205212 -0.12462562 -0.5188317 0.3627593 0.36300373 -0.3566961 0.4493151
-0.46314397 -0.5416827 -0.20088466 -0.4468374 -0.4429288 0.14182287 0.19929497 -0.01548137
-0.3463971 0.20404492 -0.23958674 -0.38379002 0.5265576 0.17160629 0.06155024 0.082161166
0.2979849 0.1754329 -0.045526013 -0.35443428 -0.08177442 -0.30773804 0.0386093 -0.41067937
-0.48093313 0.089327626 0.23182341 -0.122856624 0.09551348 0.4960667 0.006121867 -0.31527603
-0.38397524 0.07141021 0.003922761 -0.16172779 -0.4925766 -0.35479656 -0.05364437 0.450419
0.4701345 0.15878543 0.14297017 -0.39076495 -0.2289024 0.04559634 -0.1392044 -0.06491986
-0.07563163 0.24465044 0.01214006 -0.25914744 -0.32179183 -0.16449049 -0.43592027 0.05926043
0.14260603 -0.2220013 0.21140721 0.15241057 0.28962594 -0.0023448484 -0.07184478 0.48416343
0.4762965 0.4236272 -0.44171938 -0.0094846105 0.0014844277 0.38523966 -0.04976384 -0.32948565
0.42442515 -0.07691285 -0.39898336 0.27922502 -0.24045731 -0.015723743 0.011577554 0.22434756
-0.37224725 0.15664545 0.3982119 0.20906453 -0.0419541 0.4440759 0.2710499 0.04604938
00000000: f87a d13d 0afb d9be 1e58 92be 0b7c c63e
00000010: 6f6b 65bd 40a9 7f3e 43b5 31be eab0 ad3c
00000020: 26f5 0b3e 4e18 783c b714 c33e aa1d a53e
00000030: 9a10 cb3e 64e8 c43e 09e2 a13d 2265 8abe
00000040: bd27 a8be 2c53 a73e 6933 4e3e 242d 6e3e
00000050: 9d9d 62be f188 c03e 387c aebd 8aab 0a3f
00000060: 97c9 00bf a5f9 bcbe 685a 24bd 01c2 58be
00000070: 7a20 9f3d 5019 2cbe cb11 c23e 429e de3e
00000080: 3594 d3be 8a10 39be c188 04be 4b12 b73e
00000090: 6057 b6be 6e3a 423e c84e 63bd bf23 c9be
000000a0: 5d3a 833e 4e67 d6be 1305 81bb 56fe 0a3c
000000b0: f5c2 05bf ea19 a0be 7b39 c83e 4355 b93e
000000c0: d9ac dc3e f734 a3be da55 333e 8798 863d
000000d0: 12bf f4be 984c 6d3e e7d2 fcbe 3332 853e
000000e0: a383 ffbe f8ac 25bd 2138 1abe fa1e 913e
000000f0: 05e4 d73e a70f 92be 2d27 d8be 9bf0 9bbc
00000100: a765 a43e c6fb f33c 6ba9 a63e d42d 3dbe
00000110: 1951 d6bc 7fe1 f63e 03c8 cebe b372 593e
00000120: dc40 9b3e 197d 4e3d d3ad b0be b648 8ebe
00000130: 1cce 3e3e 9ced 04bf b2a6 3f3e 0c82 073d
00000140: 7ec2 bbbe f387 ed3e be08 87be f336 7d3e
00000150: 5dc9 1cbe 58bd f2be 1e8d 8a3e 11fa 0a3d
00000160: 662d 013e dd90 7fbe 9411 273c d894 18be
00000170: 3853 84be 3a86 9c3e 66e0 fd3d bb61 fe3e
00000180: 8241 dcbe aa54 063f 68e2 d6be b569 aabe
00000190: 470a f13c a762 683e 8457 7d3e 6dd3 06be
000001a0: 5b3e 033f 55ad 053f 58b8 b1be 64c1 ee3d
000001b0: 76ae b03e 3d2e 91be 4687 3ebe cd3b 093e
000001c0: 79c3 e8bd 4882 7fbe cdac 8d3e 4786 bf3e
000001d0: 4467 95bd a69d 223e 04e6 dfbd ffec 01bd
000001e0: 79f2 2abd 65cc 0c3c 2f3a 00bf 1da2 dd3e
000001f0: 5117 e33e cafe e33e 415b 04bf b0e8 ec3e
00000200: 0755 e4be 9cf9 cabd f2c9 56be 2c9f f0be
00000210: acff 443e dbad 82be 5944 5d3e 8f82 e43e
00000220: 2982 f13e 96f7 753e 8dae f2bd 1f07 823e
00000230: 3be5 063e 4efe 023f 9764 9ebe 9a37 a6be
00000240: 11be b3be f733 2f3e 04aa 06bf 2f2b d43e
00000250: 62c6 99be db31 afbe 4a78 0e3d 3edc fa3e
00000260: 2de5 1f3e 2a1d b43e 1833 b13e 8e7b a33e
00000270: 01a8 063f 7ff5 2bbe b9ca d9be 1457 a73e
00000280: da46 cdbe 6e2e 30be b83b ffbd 27d2 04bf
00000290: 96bb b93e a0db b93e dfa0 b6be a10c e63e
000002a0: 3521 edbe b8ab 0abf b5b4 4dbe dfc7 e4be
000002b0: 90c7 e2be 043a 113e fb13 4c3e 92a5 7dbc
000002c0: f65a b1be 27f1 503e 3a56 75be 2080 c4be
000002d0: 7bcc 063f 8fb9 2f3e 1b1c 7c3d 1d44 a83d
000002e0: 7a91 983e afa4 333e 7c79 3abd 6978 b5be
000002f0: 5979 a7bd d78f 9dbe c924 1e3d 9144 d2be
00000300: de3c f6be 67f1 b63d 1e63 6d3e 419c fbbd
00000310: 929c c33d 74fc fd3e f199 c83b dc6b a1be
00000320: 6798 c4be 843f 923d 818a 803b f89b 25be
00000330: 0033 fcbe e5a7 b5be 33ba 5bbd 529d e63e
00000340: 78b5 f03e a698 223e c666 123e 5812 c8be
00000350: 6465 6abe 3ac3 3a3d 998b 0ebe b4f4 84bd
00000360: c2e4 9abd a585 7a3e 1ae7 463c f9ae 84be
00000370: e6c1 a4be 3270 28be f130 dfbe 11bb 723d
00000380: 5107 123e 4f54 63be 227b 583e 8411 1c3e
00000390: da49 943e 07ac 19bb 5b23 93bd 45e4 f73e
000003a0: 23dd f33e aae5 d83e 0b29 e2be 5765 1bbc
000003b0: 2191 c23a 223e c53e 2bd5 4bbd 58b2 a8be
000003c0: 414e d93e 7c84 9dbd 8c47 ccbe 95f6 8e3e
000003d0: 713a 76be 14cf 80bc c8af 3d3c 5ebb 653e
000003e0: 3197 bebe aa67 203e 6ee2 cb3e 0315 563e
000003f0: 10d8 2bbd eb5d e33e 0dc7 8a3e 469e 3c3d

feature_exact.op_attention_blocks.0.attention_2.a f4 [64, 1]
0.22368778 -0.32898006 -0.22752303 0.37437698 0.33070114 0.025187485 -0.10246125 0.4276512
0.19835512 -0.31130597 -0.15734205 0.0026922624 -0.14304627 0.09221264 -0.050771564 -0.07812398
0.060892142 0.25300604 0.03720068 -0.1572035 -0.32578933 0.11672864 0.21465118 0.177593
0.07417214 0.15257387 0.37401345 0.04866515 0.21941881 0.004580089 0.37609974 -0.21468636
0.40072814 0.28510502 -0.37535623 -0.3424279 0.40479782 -0.3494586 0.090289 -0.18514109
0.2908806 0.44304085 0.11287229 0.3442809 0.0636153 -0.15732984 0.03038843 0.01792789
-0.021801202 0.1988182 0.080267966 -0.06598783 -0.283504 -0.33847046 0.22288246 0.053647153
-0.22869931 -0.18945247 0.29330695 -0.012877126 -0.40657496 0.24131596 0.23542957 0.25747696
00000000: 690e 653e 1370 a8be ccfb 68be 57ae bf3e
00000010: a951 a93e fc55 ce3c 34d7 d1bd 19f5 da3e
00000020: 9b1d 4b3e 7f63 9fbe 461e 21be ab70 303b
00000030: b97a 12be fbd9 bc3d d8f5 4fbd 77ff 9fbd
00000040: 0a6a 793d 028a 813e bd5f 183d f4f9 20be
00000050: dccd a6be 6d0f ef3d 85cd 5b3e f0da 353e
00000060: 90e7 973d 533c 1c3e b17e bf3e 1c55 473d
00000070: 53af 603e 9214 963b 2590 c03e bed6 5bbe
00000080: 3d2c cd3e 49f9 913e b12e c0be b652 afbe
00000090: a941 cf3e 3dec b2be 70e9 b83d a095 3dbe
000000a0: 4dee 943e 40d6 e23e 9629 e73d 9645 b03e
000000b0: bd48 823d 131b 21be 28f1 f83c 83dd 923c
000000c0: 6f98 b2bc 0097 4b3e 8863 a43d a124 87bd
000000d0: 7027 91be 004c adbe 4d3b 643e 1ebd 5b3d
000000e0: 2730 6abe d4ff 41be 542c 963e 95fa 52bc
000000f0: 982a d0be 881b 773e 7314 713e 05d4 833e

feature_exact.op_attention_blocks.0.attention_3.W f4 [10, 32]
0.030502938 0.39691815 0.26515368 -0.34852275 -0.29038328 -0.38972953 -0.35259292 0.49728867
-0.51864743 0.4712531 -0.4861653 0.33679655 0.38905853 0.21850255 -0.17959966 -0.42783993
0.1366783 -0.4935408 0.46468526 0.26431903 -0.10466166 -0.5180725 0.22503494 0.06229133
0.19925779 0.30984905 0.459545 0.17775528 -0.43859103 -0.39774114 0.20428306 -0.47066984
0.2888625 -0.21382941 -0.49535656 0.1763147 0.39010894 0.21270591 -0.21023515 0.5178209
0.4693988 0.44615155 0.077405296 -0.5118908 0.088600636 -0.53173304 0.38224632 0.1342819
0.42475688 0.47292468 -0.28672677 0.5029608 0.017105838 0.17208649 -0.21091308 0.2563364
-0.18578985 0.34426448 0.46651384 -0.42388237 -0.42935002 -0.5193358 -0.40814358 -0.4420269
0.3552251 -0.21761496 -0.023789786 0.26117423 -0.4220058 0.08411786 0.023785587 -0.47013748
0.51189065 0.5057641 -0.1932101 -0.071270235 0.15550071 -0.04223881 0.2831399 0.15913491
0.14244466 0.49962512 0.1468656 -0.3778249 -0.251177 0.4689364 0.21667811 -0.13271034
-0.107045285 -0.18354447 -0.2763932 -0.39424026 0.3169767 0.41214272 -0.34018204 -0.081359774
-0.5312845 -0.062659845 0.3147048 0.15840223 -0.32327154 -0.31685075 0.23982759 -0.46496785
0.47871137 -0.23390064 0.5312255 -0.3603812 0.18745852 -0.025434667 -0.13054448 -0.17464717
-0.5251433 0.44215068 -0.43220013 0.02018196 0.3369382 -0.12005473 -0.42466566 0.10650849
0.39327058 0.5141489 0.14544515 0.18689068 -0.03254735 0.45263728 0.4636212 0.06171748
0.30700615 0.33803207 -0.015081339 0.18958083 -0.21780607 -0.42295858 -0.29988784 -0.2558164
0.53413147 -0.13643855 -0.34493157 0.47217402 0.41453016 0.08138047 -0.30181637 0.5134876
-0.15700965 -0.5045816 -0.068778984 0.2848143 -0.122468226 0.48180783 -0.0005404071 0.24986774
-0.54627836 -0.5451308 0.24183318 -0.43041968 0.31308603 -0.465401 -0.4368775 0.45733842
0.21480872 0.21421868 0.2635983 -0.4886578 -0.07795267 0.52431786 0.46722072 -0.39985606
0.18499967 -0.5325878 0.45849398 -0.16017266 -0.09988354 0.36033154 -0.2870694 0.26683536
-0.00856589 0.4241723 0.34708032 -0.023685964 0.32420877 0.41739595 0.10717337 0.34637555
-0.3161997 0.35606194 -0.06648992 -0.29225114 0.08117867 -0.06251487 0.3096492 0.5284829
0.29927963 -0.08147026 0.4425068 0.51660615 -0.37543455 -0.4998729 -0.504742 0.36764154
0.008148339 0.23165591 0.32047924 0.1813093 -0.0064368057 -0.51939 0.038331877 0.09192346
0.43448788 0.06435485 -0.45756394 -0.24771015 0.27533495 -0.09349304 -0.4357008 0.10721054
-0.5101897 -0.14704669 0.24752377 -0.10505656 0.28190875 -0.06165522 0.42846859 0.078875095
-0.0055398974 -0.29440683 0.3052687 -0.2688017 -0.42256746 0.16200714 -0.26676753 -0.05827616
-0.04274119 0.35409358 0.40852556 -0.4988956 0.40916243 0.41675863 -0.40900737 -0.43523726
0.49536428 -0.22466111 -0.44505838 -0.40095443 0.34539494 0.37128416 -0.12219749 0.2590738
0.15997274 0.3048151 0.34034798 0.39495057 0.42639723 0.42809537 0.3571997 -0.4739538
00000000: 4ce1 f93c db38 cb3e 39c2 873e 9371 b2be
00000010: 1ead 94be a18a c7be 0f87 b4be 9f9c fe3e
00000020: 14c6 04bf 1648 f13e a8ea f8be 9970 ac3e
00000030: ae32 c73e 22bf 5f3e f9e8 37be d60d dbbe
00000040: 65f5 0b3e 61b1 fcbe 3aeb ed3e d354 873e
00000050: da58 d6bd 66a0 04bf 8f6f 663e 3225 7f3d
00000060: 3c0a 4c3e 89a4 9e3e 7b49 eb3e 7b05 363e
00000070: 018f e0be baa4 cbbe 942f 513e a3fb f0be
00000080: c9e5 933e 19f6 5abe 609f fdbe d78b 343e
00000090: 5cbc c73e 94cf 593e e247 57be e98f 043f
000000a0: 0a55 f03e fa6d e43e ab86 9e3d 470b 03bf
000000b0: 4074 b53d a81f 08bf cab5 c33e 3281 093e
000000c0: bc79 d93e 2f23 f23e dacd 92be 0ac2 003f
000000d0: 8b21 8c3c 7137 303e 99f9 57be 863e 833e
000000e0: b23f 3ebe 6f43 b03e e7da ee3e 1c07 d9be
000000f0: c4d3 dbbe 31f3 04bf 32f8 d0be 5a51 e2be
00000100: 10e0 b53e 75d6 5ebe cce2 c2bc a1b8 853e
00000110: 2511 d8be fc45 ac3d fed9 c23c dcb5 f0be
00000120: 440b 033f c279 013f ded8 45be 21f6 91bd
00000130: 943b 1f3e 9a02 2dbd b7f7 903e 43f4 223e
00000140: 03dd 113e ddce ff3e f063 163e 4472 c1be
00000150: 469a 80be 6f18 f03e dee0 5d3e 38e5 07be
00000160: 8f3a dbbd 15f3 3bbe 6983 8dbe dcd9 c9be
00000170: c54a a23e 5f04 d33e 572c aebe f49f a6bd
00000180: 4302 08bf ce53 80bd fd20 a13e 3234 223e
00000190: d983 a5be 433a a2be 5d95 753e 4410 eebe
000001a0: a819 f53e a683 6fbe 65fe 073f e283 b8be
000001b0: 20f5 3f3e 5d5c d0bc 74ad 05be b5d6 32be
000001c0: cb6f 06bf 9361 e23e 5649 ddbe a354 a53c
000001d0: 2a83 ac3e 41df f5bd c76d d9be 2021 da3d
000001e0: c35a c93e 439f 033f 93ef 143e 4560 3f3e
000001f0: 5f50 05bd 13c0 e73e c25f ed3e 78cb 7c3d
00000200: e92f 9d3e 8a12 ad3e b817 77bc 7a21 423e
00000210: 8e08 5fbe 078e d8be e68a 99be 5efa 82be
00000220: d7bc 083f 8cb6 0bbe df9a b0be cbc0 f13e
00000230: 4c3d d43e ceaa a63d ad87 9abe ec73 033f
00000240: 23c7 20be 422c 01bf ffdb 8cbd 2ed3 913e
00000250: 9fd0 fabd 84af f63e 1baa 0dba 54dd 7f3e
00000260: e6d8 0bbf b18d 0bbf 1ea3 773e f85f dcbe
00000270: d04c a03e 0a49 eebe 68ae dfbe 4328 ea3e
00000280: d1f6 5b3e 245c 5b3e 5bf6 863e 5b31 fabe
00000290: a6a5 9fbd b239 063f 8e37 ef3e efb9 ccbe
000002a0: 8e70 3d3e ad57 08bf b9bf ea3e 4d04 24be
000002b0: be8f ccbd 607d b83e c3fa 92be a59e 883e
000002c0: f257 0cbc 1d2d d93e 83b4 b13e 1109 c2bc
000002d0: b1fe a53e ecb4 d53e b67d db3d 2358 b13e
000002e0: ede4 a1be c04d b63e de2b 88bd f1a1 95be
000002f0: 0141 a63d cc07 80bd 578a 9e3e a84a 073f
00000300: 2e3b 993e e1d9 a6bd 4090 e23e 4d40 043f
00000310: f538 c0be 57ef ffbe c636 01bf 833b bc3e
00000320: 9c80 053c 3537 6d3e db15 a43e 25a9 393e
00000330: d7eb d2bb bef6 04bf e301 1d3d 5e42 bc3d
00000340: 3275 de3e 7acc 833d d245 eabe bba7 7dbe
00000350: b4f8 8c3e 4779 bfbd 2d14 dfbe 3391 db3d
00000360: cb9b 02bf 6893 16be df76 7d3e e527 d7bd
00000370: 5856 903e 2f8a 7cbd 3c60 db3e 4489 a13d
00000380: 0788 b5bb 7ebc 96be 2e4c 9c3e 60a0 89be
00000390: c35a d8be 33e5 253e c195 88be fcb2 6ebd
000003a0: 6311 2fbd c14b b53e 432a d13e 3e6f ffbe
000003b0: bd7d d13e 6361 d53e 6a69 d1be 6bd7 debe
000003c0: 63a0 fd3e 900d 66be b1de e3be e649 cdbe
000003d0: 9bd7 b03e f518 be3e ad42 fabd 52a5 843e
000003e0: e5cf 233e ba10 9c3e 1742 ae3e f636 ca3e
000003f0: bd50 da3e 512f db3e e1e2 b63e 13aa f2be

feature_exact.op_attention_blocks.0.attention_3.a f4 [64, 1]
0.42177153 0.37334472 -0.2274432 0.08813645 -0.31652814 0.17159308 0.38707617 0.12785278
-0.3151546 -0.073463425 -0.022419367 -0.39019376 -0.30339897 -0.17265163 0.3253682 -0.34265402
0.050577533 0.12506941 -0.06698473 -0.2547864 -0.3338357 -0.1095096 0.38106737 0.38903785
0.14398438 -0.33083946 0.39125782 0.19295822 -0.18024978 -0.38415152 -0.00078040647 0.36963874
0.38406432 0.1002691 -0.0077765766 0.14501862 -0.29860777 0.122476235 -0.360984 -0.23153694
-0.006284461 -0.30809334 -0.43280637 -0.38348714 0.28405976 0.03167837 -0.16694513 0.058682166
0.39589918 0.048185863 -0.001492545 -0.37377626 0.36570814 -0.02176738 -0.10833081 -0.15137617
-0.34938064 -0.16925085 -0.13104749 -0.34180298 -0.31446373 0.016923688 0.34658757 0.15653911
00000000: 70f2 d73e 0a27 bf3e dfe6 68be e280 b43d
00000010: fa0f a2be 19b6 2f3e d92e c63e d7eb 023e
00000020: f25b a1be fe73 96bd d2a8 b7bc 7ac7 c7be
00000030: 1c57 9bbe 97cb 30be a996 a63e 5970 afbe
00000040: 632a 4f3d 3212 003e 4a2f 89bd 5d73 82be
00000050: 83ec aabe 9246 e0bd 431b c33e f82f c73e
00000060: a470 133e ca63 a9be f252 c83e d796 453e
00000070: 6693 38be 82af c4be 3194 4cba 4a41 bd3e
00000080: 14a4 c43e e359 cd3d a7d2 febb c37f 143e
00000090: 1ee3 98be d2d4 fa3d e5d2 b8be 0518 6dbe
000000a0: e1ed cdbb 69be 9dbe cc98 ddbe 6d58 c4be
000000b0: 4870 913e 2ec1 013d aaf3 2abe b65c 703d
000000c0: 4cb3 ca3e 8a5e 453d 80a1 c3ba 9a5f bfbe
000000d0: 193e bb3e 8151 b2bc 8bdc ddbd 5b02 1bbe
000000e0: 05e2 b2be 1850 2dbe 5031 06be cd00 afbe
000000f0: 6401 a1be 8ca3 8a3c ed73 b13e ca4b 203e

feature_exact.op_attention_blocks.1.attention_0.W f4 [128, 8]
0.053157367 -0.18546046 -0.045786254 0.2656028 0.09868363 0.19466513 0.016908133 0.20044826
0.11460227 -0.20453718 0.2021089 0.13370958 -0.017229475 0.21085773 0.24539085 -0.05554319
-0.18828057 0.0005135486 0.2237327 -0.100531496 0.07559089 0.24170855 0.08572692 -0.11947704
0.008757789 -0.2740468 -0.06608598 0.14601046 -0.08310871 -0.0014825689 0.03471579 -0.104276255
0.19254908 -0.124808736 -0.10221631 -0.065622 0.13764459 -0.08205785 0.29796463 0.1946167
-0.09509692 -0.13703251 0.1559496 -0.18197231 -0.035794068 -0.090475954 -0.19355935 -0.08964679
-0.24833345 -0.20924672 -0.24194102 -0.20085286 -0.2551831 -0.022376899 -0.21279801 0.22233981
-0.049912814 -0.28893605 -0.079350285 0.044999957 -0.10207277 0.14353836 -0.07292706 0.053470246
-0.107418485 0.30596778 0.1251712 0.22661184 0.19151525 0.22200331 0.21417095 -0.24144271
-0.10017842 -0.26731086 -0.27929536 0.16739552 -0.23772314 -0.23833089 0.1495322 0.052864376
0.19362605 0.26972935 0.120560095 0.24825357 -0.26248398 -0.024081387 -0.057324514 0.20662735
0.05431638 0.0957985 -0.23515137 0.16102225 0.26411685 0.15490499 -0.26068595 0.119898185
0.21763015 -0.20684963 0.036235817 -0.25263572 0.19561093 0.079164706 -0.07060732 0.02036725
-0.03888329 -0.16584025 0.14058311 -0.04656448 0.19683136 0.11648133 0.04024279 -0.21254562
0.23493716 0.08429488 0.05893191 0.28868237 0.111041486 0.2339085 0.25863707 -0.112198375
0.21732217 -0.25251335 -0.15076329 0.21654321 -0.11233743 0.09137971 0.11617318 0.21346949
0.2643569 -0.16360435 -0.109386735 -0.1291757 0.21683614 -0.26754037 -0.2357046 -0.27852938
0.033326566 -0.07005373 0.19205049 -0.0029419363 -0.10236159 0.28415614 -0.30166408 0.06530126
-0.06914985 0.15768428 -0.057006244 -0.19560622 -0.271177 0.03822072 0.17116918 -0.10535077
0.14445843 0.2516399 -0.11228986 -0.23719095 -0.2360641 0.26972452 0.024196265 0.13366592
0.039822146 0.0035011328 -0.20531507 0.1260186 0.034522343 -0.071190126 0.009281685 0.23679858
-0.22648072 -0.22052655 0.2607671 0.28050226 0.27432698 -0.034900606 0.014088083 0.23482826
-0.10353742 -0.083598875 0.0356981 0.17874466 -0.25234926 0.10807252 0.021470342 0.056824308
-0.02874991 0.0012486785 -0.23374581 -0.2610968 0.24553388 -0.13218693 -0.2057619 -0.25861314
0.21249184 0.22696456 0.17049761 0.1674957 0.26455814 0.21978307 -0.25736386 0.11474868
-0.07861296 0.25097746 0.2152911 -0.22986743 -0.2166407 0.24427566 0.10852613 0.19977245
0.14599793 -0.09731451 0.033440024 0.13220738 0.025085995 0.014860481 -0.23150468 0.14283478
0.2804757 -0.23507836 -0.2987126 0.17277592 0.2666395 -0.16760041 -0.17930484 -0.21136299
0.26735044 -0.19443968 -0.2609212 0.120688766 -0.080369815 -0.26344734 0.24214266 -0.08537567
-0.18071903 -0.123176716 0.0669515 -0.26457304 -0.15994495 0.17068096 0.21131165 0.046144556
-0.20235291 -0.08063486 -0.30570152 -0.25874573 -0.022004744 -0.22292216 -0.0007285124 0.12972042
-0.012880678 0.21442229 0.030343639 0.1825798 -0.101872705 -0.2611724 -0.16613574 0.02854419
00000000: 8abb 593d 59e9 3dbe 5e8a 3bbd 17fd 873e
00000010: a51a ca3d 4c56 473e ed82 8a3c 4f42 4d3e
00000020: 98b4 ea3d 3272 51be a3f5 4e3e 2aeb 083e
00000030: d424 8dbc 17eb 573e bd47 7b3e 4281 63bd
00000040: 9fcc 40be aa9f 063a 2f1a 653e 75e3 cdbd
00000050: 66cf 9a3d 7282 773e 9891 af3d 61b0 f4bd
00000060: d47c 0f3c dd4f 8cbe 1658 87bd c483 153e
00000070: e634 aabd c252 c2ba 2532 0e3d ca8e d5bd
00000080: 962b 453e b99b ffbd c956 d1bd d464 86bd
00000090: b4f2 0c3e f20d a8bd d28e 983e 9a49 473e
000000a0: 2dc2 c2bd 4052 0cbe 40b1 1f3e f356 3abe
000000b0: cd9c 12bd 754b b9bd 6c34 46be bc98 b7bd
000000c0: 204b 7ebe c644 56be 63bf 77be 5fac 4dbe
000000d0: 5ca7 82be c24f b7bc b9e7 59be 0cad 633e
000000e0: 6171 4cbd 6def 93be 6782 a2bd e051 383d
000000f0: 870b d1bd b8fb 123e c85a 95bd 9e03 5b3d
00000100: 39fe dbbd cfa7 9c3e e12c 003e ef0c 683e
00000110: 931c 443e d654 633e a14f 5b3e c23c 77be
00000120: 582a cdbd f8dc 88be cdff 8ebe bb69 2b3e
00000130: b26d 73be 030d 74be f81e 193e 5188 583d
00000140: e845 463e f719 8a3e 36e8 f63d 2f36 7e3e
00000150: 4d64 86be 5446 c5bc 1ccd 6abd 1f96 533e
00000160: da7a 5e3d 0132 c43d 85cb 70be 04e3 243e
00000170: 533a 873e 6a9f 1e3e a178 85be 2e8d f53d
00000180: 70da 5e3e 64d0 53be 026c 143d 7859 81be
00000190: 3b4e 483e 1b21 a23d 929a 90bd 38d9 a63c
000001a0: 1644 1fbd 07d2 29be 05f5 0f3e 65ba 3ebd
000001b0: 298e 493e c38d ee3d a0d5 243d 8fa5 59be
000001c0: 5e93 703e cba2 ac3d 9662 713d 2dce 933e
000001d0: b869 e33d b685 6f3e 146c 843e 43c8 e5bd
000001e0: b489 5e3e 6e49 81be b161 1abe 81bd 5d3e
000001f0: 2b11 e6bd 4925 bb3d 34ec ed3d bf97 5a3e
00000200: ca59 873e e687 27be 2706 e0bd a246 04be
00000210: 4b0a 5e3e 0dfb 88be 8c5c 71be 679b 8ebe
00000220: 7081 083d 5478 8fbd e2a8 443e 80cd 40bb
00000230: f4a2 d1bd ea7c 913e b773 9abe abbc 853d
00000240: 709e 8dbd fd77 213e 617f 69bd ff4c 48be
00000250: b6d7 8abe 548d 1c3d f946 2f3e 25c2 d7bd
00000260: e9ec 133e f2d6 803e 3af8 e5bd 2fe2 72be
00000270: caba 71be 5519 8a3e 3f37 c63c b8df 083e
00000280: 8c1c 233d 4373 653b 1d3e 52be 050b 013e
00000290: 4d67 0d3d 21cc 91bd 3512 183c 547b 723e
000002a0: 90ea 67be b6d1 61be 4483 853e fe9d 8f3e
000002b0: 9674 8c3e f0f3 0ebd b4d1 663c d276 703e
000002c0: 6d0b d4bd e335 abbd 2c38 123d d708 373e
000002d0: ec33 81be 2055 dd3d 92e2 af3c 9bc0 683d
000002e0: ee84 ebbc b3aa a33a 105b 6fbe 7bae 85be
000002f0: 3c6d 7b3e 035c 07be 3fb3 52be f168 84be
00000300: 7697 593e 6669 683e ed96 2e3e fe83 2b3e
00000310: 2a74 873e d00e 613e 32c5 83be 5b01 eb3d
00000320: d5ff a0bd 1e80 803e 4575 5c3e 5e62 6bbe
00000330: 0fd7 5dbe 6623 7a3e f342 de3d 2691 4c3e
00000340: 7b80 153e d44c c7bd 68f8 083d 5f61 073e
00000350: 2581 cd3c 6079 733c 900f 6dbe 4843 123e
00000360: 839a 8f3e 62b8 70be dcf0 98be 2cec 303e
00000370: f984 883e 719f 2bbe b09b 37be 8a6f 58be
00000380: 28e2 883e 321b 47be 7797 85be ac2b f73d
00000390: ee98 a4bd 92e2 86be 3ff4 773e 70d9 aebd
000003a0: 690e 39be 1344 fcbd de1d 893d 1e76 87be
000003b0: 9cc8 23be fdc6 2e3e 1562 583e 1302 3d3d
000003c0: 9a35 4fbe e423 a5bd e984 9cbe 527a 84be
000003d0: 4b43 b4bc b545 64be a4f9 3eba 6ed5 043e
000003e0: 7b09 53bc 8491 5b3e 3993 f83c 33f6 3a3e
000003f0: a3a2 d0bd 64b8 85be 7d1f 2abe 81d5 e93c

feature_exact.op_attention_blocks.1.attention_0.a f4 [16, 1]
0.35364956 -0.41620824 -0.21597257 -0.73438114 0.15551189 -0.2428718 -0.7888749 0.82895
0.725138 0.37454128 -0.5641118 0.3084646 0.229575 -0.27815002 0.5432719 -0.11770541
00000000: 8e11 b53e 3f19 d5be ea27 5dbe 6700 3cbf
00000010: 823e 1f3e 63b3 78be b5f3 49bf 1136 543f
00000020: a5a2 393f e0c3 bf3e a269 10bf 12ef 9d3e
00000030: b515 6b3e ae69 8ebe de13 0b3f 890f f1bd

feature_exact.op_attention_blocks.1.attention_1.W f4 [128, 8]
-0.23322572 -0.1976491 -0.17581744 0.17300105 -0.24241917 -0.042624597 -0.0049327672 0.14951016
0.19991042 -0.07805018 -0.25759003 -0.08406852 0.156885 0.06288389 0.05204934 -0.1666362
0.12703055 -0.042861495 -0.29043952 0.069675244 0.24494122 0.1547892 -0.07349545 0.16824867
0.059530765 -0.07261115 0.22382717 0.056506462 -0.26708114 0.23407355 -0.28074038 -0.088039085
-0.10572434 0.16658737 -0.06979225 0.2921257 0.0076266313 -0.1760437 -0.1210567 -0.18218926
0.1995791 -0.09786943 -0.2312077 0.16430691 -0.18281876 -0.001735554 0.041141678 0.04356465
-0.24533696 -0.22160885 -0.151363 -0.24220884 -0.18620208 0.11309487 -0.22213858 -0.15077464
-0.13243188 -0.24488689 0.19166724 -0.04470111 0.24170627 0.18236324 0.28131014 0.06260697
0.059790142 0.06633374 0.21374662 0.14501256 -0.19554274 -0.28125367 0.2574148 0.19875553
-0.00176465 -0.25250497 -0.25938556 -0.017443841 -0.09310241 0.1324964 0.28832352 0.28738016
-0.049643937 0.13474442 -0.023724295 -0.288267 0.034936033 0.12960547 -0.09642105 -0.22898033
-0.25554523 0.07758149 -0.13475999 0.12379158 -0.12310646 0.110663004 -0.018687727 0.021715658
-0.11986847 -0.24702264 0.29031956 0.0004777454 -0.19034433 -0.03889613 -0.1012988 -0.23859446
-0.29033357 -0.11436442 0.15381515 0.007833317 0.1312346 0.14770076 -0.22732732 -0.17237748
0.07115813 -0.28566828 -0.012595345 0.13240783 -0.2300459 0.09401755 0.225517 0.08841569
0.21869515 -0.026652314 0.26161173 0.098197825 -0.06980943 -0.20082757 -0.048022594 0.28644094
-0.22716726 0.19550686 -0.13101901 -0.13945834 0.22561218 0.19203281 -0.28178853 0.23281412
0.14001444 -0.06367931 0.23720835 -0.21333379 0.106112376 0.30224815 0.26533678 -0.1027146
0.248473 0.0514518 0.10579949 0.16215158 0.17232917 0.047367487 -0.0034030715 -0.054802425
-0.30384755 -0.26998574 0.048298795 -0.18312734 0.11025461 -0.043514278 -0.26944244 -0.1740215
0.21615815 0.1601987 0.06729096 0.15039119 0.0342006 0.29179096 -0.011781554 -0.0970352
0.18100087 0.21828796 -0.20249973 0.2797065 -0.02100273 0.25252852 0.25260553 0.16723165
0.110925056 0.16692261 0.12662992 0.16934285 -0.08515972 -0.18938221 0.039673153 0.09820973
-0.23400505 -0.06567867 0.28566146 -0.11814896 -0.26665947 0.13189729 0.088196196 0.19053192
-0.27375728 0.11509694 0.18448378 -0.1316644 -0.19916885 -0.1700689 -0.047768794 0.0035577086
-0.040324852 0.16840094 0.049744982 -0.20588127 0.26447392 0.21331762 0.009278656 0.17715384
0.07969052 0.10412749 -0.0432614 0.08013648 0.05706492 0.0063541583 0.081793465 0.01786472
-0.15157413 0.09484511 -0.23759063 -0.15498549 -0.011951137 0.1331599 -0.09254004 0.21438856
-0.19087407 -0.06384428 -0.20549385 0.14419971 0.20915413 -0.28595343 0.05211646 0.19517426
-0.28745213 0.12521839 0.061943833 0.14997454 -0.18080577 0.15066275 -0.14489694 -0.21285856
-0.20586187 -0.2764202 0.10696417 -0.26253211 0.15760623 0.2820265 -0.20810463 0.076037906
-0.20823087 -0.09927466 -0.27616924 -0.27140164 0.18123648 0.067790195 -0.2708489 -0.19911079
00000000: b9d2 6ebe 8764 4abe 7d09 34be 3027 313e
00000010: bb3c 78be 2197 2ebd 0da3 a1bb 3119 193e
00000020: 51b5 4c3e c6d8 9fbd d7e2 83be 1e2c acbd
00000030: 76a6 203e 45c9 803d b031 553d aea2 2abe
00000040: 4c14 023e 898f 2fbd 7db4 94be e5b1 8e3d
00000050: dfd1 7a3e 0f81 1e3e c884 96bd 6149 2c3e
00000060: 88d6 733d 28b5 94bd f332 653e 5273 673d
00000070: dcbe 88be fab0 6f3e 34bd 8fbe d64d b4bd
00000080: 0186 d8bd e195 2a3e 3def 8ebd 8091 953e
00000090: d2e8 f93b cd44 34be 93ec f7bd d28f 3abe
000000a0: 775e 4c3e c56f c8bd b6c1 6cbe 1240 283e
000000b0: d734 3bbe 877b e3ba 2d84 283d d970 323d
000000c0: 9d39 7bbe 6eed 62be e7fe 1abe 9805 78be
000000d0: c2ab 3ebe 489e e73d 4c78 63be ab64 1abe
000000e0: 399c 07be a1c3 7abe 6b44 443e 8318 37bd
000000f0: d981 773e 6ebd 3a3e e207 903e 1538 803d
00000100: 82e6 743d fcd9 873d 65e0 5a3e 2c7e 143e
00000110: 5b3c 48be 7b00 90be dfcb 833e 9286 4b3e
00000120: d44b e7ba 5548 81be 2fce 84be 63e6 8ebc
00000130: 7aac bebd 23ad 073e 249f 933e 7e23 933e
00000140: 7157 4bbd 71fa 093e 7459 c2bc bb97 93be
00000150: 1619 0f3d 4cb7 043e 6678 c5bd d279 6abe
00000160: d3d6 82be 0be3 9e3d 86fe 09be 7186 fd3d
00000170: 3d1f fcbd 49a3 e23d 0117 99bc 09e5 b13c
00000180: 9a7d f5bd 81f3 7cbe c4a4 943e e779 fa39
00000190: a0e9 42be 8c51 1fbd bf75 cfbd 1b52 74be
000001a0: 9aa6 94be e537 eabd b881 1d3e 5057 003c
000001b0: 5d62 063e de3e 173e 7ec8 68be b983 30be
000001c0: 5bbb 913d 1d43 92be b55c 4ebc eb95 073e
000001d0: 2791 6bbe 468c c03d eeed 663e 4913 b53d
000001e0: 9ff1 5f3e f455 dabc f9f1 853e f11b c93d
000001f0: 3ff8 8ebd bea5 4dbe 57b3 44bd 63a8 923e
00000200: 899e 68be f332 483e d929 06be 2bce 0ebe
00000210: e106 673e 40a4 443e 9646 90be d366 6e3e
00000220: f25f 0f3e 4c6a 82bd bfe6 723e 2c74 5abe
00000230: 7251 d93d 45c0 9a3e 39da 873e 085c d2bd
00000240: b56f 7e3e 1fbf 523d 67ad d83d 100b 263e
00000250: 0f77 303e 6904 423d 1106 5fbb 8278 60bd
00000260: e891 9bbe 923b 8abe f5d4 453d bc85 3bbe
00000270: 2bcd e13d 073c 32bd 5cf4 89be b132 32be
00000280: 9058 5d3e 210b 243e d8cf 893d 2600 1a3e
00000290: ee15 0c3d a065 953e 6b07 41bc 64ba c6bd
000002a0: 4b58 393e e186 5f3e 175c 4fbe b135 8f3e
000002b0: eb0d acbc 6b4b 813e 8355 813e c63e 2b3e
000002c0: ad2c e33d c3ed 2a3e 46ab 013e 3668 2d3e
000002d0: 3868 aebd 69ed 41be 5180 223d 2f22 c93d
000002e0: 059f 6fbe 8a82 86bd 3842 923e 15f8 f1bd
000002f0: 9787 88be 1510 073e 35a0 b43d cd1a 433e
00000300: ea29 8cbe f2b7 eb3d 51e9 3c3e 08d3 06be
00000310: ebf2 4bbe 8b26 2ebe 36a9 43bd 7228 693b
00000320: ac2b 25bd 4c71 2c3e 65c1 4b3d 8ad2 52be
00000330: 2069 873e ef6f 5a3e 8105 183c d167 353e
00000340: c934 a33d cb40 d53d de32 31bd 981e a43d
00000350: e8bc 693d 8b36 d03b 5583 a73d 0959 923c
00000360: 4036 1bbe 273e c23d f54a 73be 84b4 1ebe
00000370: b4ce 43bc 125b 083e a285 bdbd ad88 5b3e
00000380: 7e74 43be cac0 82bd fb6c 52be 17a9 133e
00000390: 802c 563e 7d68 92be 1278 553d c3db 473e
000003a0: ed2c 93be 4039 003e d1b8 7d3d ed92 193e
000003b0: 2625 39be 5647 1a3e dd5f 14be 98f7 59be
000003c0: 74cd 52be f386 8dbe 0810 db3d 9c6a 86be
000003d0: 8763 213e c765 903e 6119 55be c3b9 9b3d
000003e0: 793a 55be 8350 cbbd 0e66 8dbe 28f5 8abe
000003f0: 0e96 393e 96d5 8a3d b5ac 8abe b3e3 4bbe

feature_exact.op_attention_blocks.1.attention_1.a f4 [16, 1]
0.6535137 -0.5069066 -0.70751834 0.27270046 -0.12454252 0.34011164 0.5045084 -0.73618114
0.7186086 -0.2219681 -0.72646224 0.52712435 0.43162754 0.74226457 0.70106435 -0.6413138
00000000: ad4c 273f a2c4 01bf ec1f 35bf 659f 8b3e
00000010: 2610 ffbd 1d23 ae3e 7627 013f 5e76 3cbf
00000020: bcf6 373f 9b4b 63be 6ef9 39bf 9ff1 063f
00000030: 49fe dc3e 0d05 3e3f f478 333f 242d 24bf

feature_exact.op_attention_blocks.1.attention_2.W f4 [128, 8]
-0.037374575 -0.18598041 0.07209349 -0.11245652 0.09157753 0.075220525 -0.09348237 -0.27933246
0.2678573 -0.21375595 0.021823185 0.2539867 0.041464444 -0.11605003 -0.086799644 0.27449384
0.24121413 -0.22284363 0.19851796 0.07393105 0.11615029 0.18371922 -0.12790978 -0.13497294
0.26458138 -0.19051112 0.28246942 0.20963451 0.25351742 -0.27783653 -0.08000384 -0.06635156
0.21071482 -0.20217942 -0.26609793 0.15468037 0.26295003 0.03449132 0.23707856 -0.17286347
0.082297444 -0.1123043 0.2831206 0.08498633 0.26151216 0.23126307 0.28287634 0.060950954
0.2541703 -0.103993736 0.101383865 0.13434926 0.07573121 0.23676753 -0.2576734 -0.276574
-0.030923232 -0.25553125 -0.2687394 0.060961913 -0.056316208 0.06553549 0.007108936 0.07012934
-0.22818714 -0.00057119556 0.24316424 -0.11100441 -0.025170952 -0.0045027616 0.05067976 -0.1429283
-0.1510579 0.10633607 -0.016960396 -0.07976228 0.19817123 0.09898769 0.22462454 -0.03903926
0.10491252 0.13744164 0.24812312 -0.27086428 -0.14569533 -0.28795272 -0.1549375 -0.25596815
-0.09836904 0.29148304 0.034203924 0.023239149 -0.17204835 0.11850206 -0.13465415 -0.016401408
0.27025315 -0.12442684 -0.29708716 0.27013367 0.0007409034 0.02904612 0.24795486 0.0506387
-0.18009059 -0.2823687 0.048938327 0.20857814 0.22683443 -0.24995096 0.14084174 0.085951135
0.07810238 -0.039627273 0.26162046 -0.20311078 -0.20880811 0.21333435 0.20823003 -0.2682498
-0.04315008 -0.20123422 -0.16142865 -0.13800386 -0.013106876 0.08748136 0.06898135 0.2903318
0.2902875 -0.18884805 0.15985058 -0.058536872 -0.14040604 0.0123528605 -0.26114702 0.15359
-0.03201032 -0.25717974 0.17075397 -0.13776833 -0.10773404 0.019194419 -0.07705098 -0.28202617
0.23098236 0.11173099 0.28250542 0.08057522 -0.19620273 -0.07848747 -0.017769214 -0.19864683
0.27306643 -0.07467854 0.12054802 -0.2639365 -0.0017495631 -0.11447888 0.29799512 0.11072039
0.19121033 0.19717483 -0.120190896 0.040317617 0.20505333 0.20510794 0.020087859 -0.20478149
0.060430113 -0.2048121 0.059958834 -0.09006778 0.117741354 -0.25287855 0.23138855 0.30357075
-0.18514965 -0.13574606 -0.1402572 -0.1507396 -0.30418152 0.11899749 -0.0022483957 0.20732582
0.10805732 0.097871676 0.22016652 -0.099222325 0.054723155 0.023852801 -0.2096799 -0.29094046
-0.11100835 -0.019492457 0.12893693 -0.17679054 -0.20745115 0.08916162 -0.04309998 -0.042824384
0.27875683 -0.28901935 -0.09069698 0.18324596 0.24642186 0.09385707 -0.116919324 -0.1671121
0.07361693 -0.20294474 -0.11624176 -0.18858154 -0.14385407 0.27278185 0.1973985 0.13680989
-0.28947762 0.24939409 0.06282777 -0.023010604 -0.30819657 -0.0678998 -0.04410844 -0.023660498
-0.17028476 0.052690815 -0.24054119 0.0026118194 -0.24721487 0.0966724 -0.09814338 -0.266024
0.21331732 -0.08910667 0.026994688 0.08117372 0.23524833 -0.24488188 -0.01746717 -0.022918895
-0.20462124 -0.28298128 -0.15028602 0.28060827 -0.13591854 0.2729274 -0.10084317 0.27830255
0.21005121 -0.048060626 -0.20286962 0.14730148 0.14049496 -0.09201595 0.056718167 0.07624527
00000000: 1516 19bd a671 3ebe c0a5 933d 9b4f e6bd
00000010: 008d bb3d 380d 9a3d af73 bfbd aa04 8fbe
00000020: 9824 893e d7e2 5abe 89c6 b23c 8b0a 823e
00000030: 9fd6 293d a3ab edbd 03c4 b1bd 758a 8c3e
00000040: d600 773e 1f31 64be 4b48 4b3e 2a69 973d
00000050: 34e0 ed3d e420 3c3e c8fa 02be 5936 0abe
00000060: 3677 873e 5915 43be d59f 903e 6eaa 563e
00000070: 09cd 813e 9740 8ebe 0ed9 a3bd 54e3 87bd
00000080: a0c5 573e 1f08 4fbe fd3d 88be 8864 1e3e
00000090: 63a1 863e c546 0d3d b9c4 723e 1f03 31be
000000a0: 908b a83d ccff e5bd 2ff5 903e 500d ae3d
000000b0: ece4 853e 3ad0 6c3e 2bd5 903e b5a7 793d
000000c0: 9c22 823e abfa d4bd 58a2 cf3d da92 093e
000000d0: f718 9b3d 3073 723e c5ed 83be 1b9b 8dbe
000000e0: b852 fdbc fed4 82be 3698 89be 33b3 793d
000000f0: d3ab 66bd 7937 863d 14f2 e83b f99f 8f3d
00000100: e4a9 69be 49bc 15ba 0c00 793e 4856 e3bd
00000110: 5033 cebc e78b 93bb 9495 4f3d cc5b 12be
00000120: ecae 1abe bac6 d93d 87f0 8abc 685a a3bd
00000130: 66ed 4a3e 0fba ca3d fa03 663e a2e7 1fbd
00000140: 60dc d63d 80bd 0c3e fd13 7e3e b9ae 8abe
00000150: 2831 15be 8a6e 93be f0a7 1ebe 420e 83be
00000160: b575 c9bd 443d 953e 6a19 0c3d 0760 be3c
00000170: 712d 30be 35b1 f23d c7e2 09be 3f5c 86bc
00000180: 9f5e 8a3e 80d3 febd cf1b 98be f64e 8a3e
00000190: 2f39 423a 21f2 ed3c e1e7 7d3e 876a 4f3d
000001a0: ab69 38be a192 90be 8e73 483d 8295 553e
000001b0: 4947 683e 25f3 7fbe d138 103e 2607 b03d
000001c0: 24f4 9f3d 3550 22bd 1ef3 853e 46fc 4fbe
000001d0: cbd1 55be 5274 5a3e 413a 553e 0a58 89be
000001e0: 23be 30bd 5810 4ebe 8d4d 25be e250 0dbe
000001f0: 39be 56bc 6d29 b33d 1846 8d3d 5fa6 943e
00000200: 90a0 943e 6261 41be dfaf 233e 5cc4 6fbd
00000210: 9ac6 0fbe a763 4a3c 10b5 85be b246 1d3e
00000220: 411d 03bd 10ad 83be 21da 2e3e 2413 0dbe
00000230: aaa3 dcbd 9d3d 9d3c e7cc 9dbd bc65 90be
00000240: a486 6c3e 38d3 e43d 8da4 903e 9f04 a53d
00000250: 5ee9 48be 0abe a0bd be90 91bc 136a 4bbe
00000260: 5dcf 8b3e 10f1 98bd e1e1 f63d af22 87be
00000270: 9951 e5ba e773 eabd d192 983e 5fc1 e23d
00000280: a4cc 433e 33e8 493e a526 f6bd 1624 253d
00000290: 80f9 513e d107 523e 4b8f a43c 3db2 51be
000002a0: 9185 773d 43ba 51be 6597 753d 7575 b8bd
000002b0: 6122 f13d 4c79 81be 1ff1 6c3e a06d 9b3e
000002c0: df97 3dbe 0401 0bbe 959f 0fbe 7b5b 1abe
000002d0: aebd 9bbe f5b4 f33d d259 13bb 384d 543e
000002e0: 284d dd3d f270 c83d 5573 613e 1335 cbbd
000002f0: 6325 603d f366 c33c 54b6 56be 26f6 94be
00000300: 5958 e3bd a5ae 9fbc 0b08 043e 9408 35be
00000310: 136e 54be 5e9a b63d 9b89 30bd 9f68 2fbd
00000320: 37b9 8e3e 58fa 93be 57bf b9bd d4a4 3b3e
00000330: 0356 7c3e 2338 c03d 6673 efbd 6f1f 2bbe
00000340: 79c4 963d bfd0 4fbe 2910 eebd 851b 41be
00000350: 7b4e 13be 10aa 8b3e d522 4a3e e417 0c3e
00000360: 6936 94be 2a61 7f3e d9ab 803d bc80 bcbc
00000370: f1cb 9dbe 0d0f 8bbd 0dab 34bd a9d3 c1bc
00000380: 215f 2ebe 53d2 573d 6e50 76be 0f2b 2b3b
00000390: e525 7dbe 2efc c53d 65ff c8bd 4c34 88be
000003a0: db6f 5a3e 8f7d b6bd f723 dd3c 683e a63d
000003b0: f0e4 703e 51c2 7abe 4f17 8fbc 68c0 bbbc
000003c0: 3b88 51be ece2 90be 94e4 19be e3ab 8f3e
000003d0: 3b2e 0bbe 24bd 8b3e dd86 cebd ac7d 8e3e
000003e0: aa17 573e 38db 44bd 0ebd 4fbe 33d6 163e
000003f0: e9dd 0f3e dc72 bcbd 4f51 683d 7b26 9c3d
